st login: Fri Oct 13 07:08:07 on ttys002
Teturou-MacPro:~ tetsurou$ cd Develop/git/MachineLearning/
Teturou-MacPro:MachineLearning tetsurou$ ls
Untitled.ipynb		mnist_mip_cnn.py
mnist_mip.py		result
Teturou-MacPro:MachineLearning tetsurou$ python mnist_mip.py
Using TensorFlow backend.
60000 train samples
10000 test samples
_________________________________________________________________
Layer (type)                 Output Shape              Param #
=================================================================
dense_1 (Dense)              (None, 512)               401920
_________________________________________________________________
dropout_1 (Dropout)          (None, 512)               0
_________________________________________________________________
dense_2 (Dense)              (None, 512)               262656
_________________________________________________________________
dropout_2 (Dropout)          (None, 512)               0
_________________________________________________________________
dense_3 (Dense)              (None, 512)               262656
_________________________________________________________________
dropout_3 (Dropout)          (None, 512)               0
_________________________________________________________________
dense_4 (Dense)              (None, 10)                5130
=================================================================
Total params: 932,362
Trainable params: 932,362
Non-trainable params: 0
_________________________________________________________________
Train on 60000 samples, validate on 10000 samples
Epoch 1/500
2017-10-13 07:20:04.720035: W tensorflow/core/platform/cpu_feature_guard.cc:45] The TensorFlow library wasn't compiled to use SSE4.2 instructions, but these are available on your machine and could speed up CPU computations.
…
